digit_model.pth (torch, 733634 bytes, 77 tensors)

conv1.weight f4 [16, 1, 3, 3]
000000 51 ca 18 be c1 32 11 3d 2d b6 69 3e b4 8d 94 be
       -0.14920928 0.035448793 0.22823401 -0.2901436
000010 0f 32 78 be 1f cf 0a bc 2a 69 5b bd 38 df 66 3e
       -0.24237846 -0.008472233 -0.05356709 0.22546089
000020 88 a0 83 be 58 48 f7 3d 41 f0 8f be 40 73 8d 3d
       -0.25708413 0.12074345 -0.28112987 0.06906748
000030 25 e2 8c 3e 6d f0 ed bd f9 79 2c 3d bc 73 88 3e
       0.27516285 -0.11618123 0.04210851 0.26650798
000040 dd b4 82 bd e2 9e 87 be 84 db 2a 3e 09 21 85 3e
       -0.06382153 -0.26488405 0.16685301 0.26001766
000050 45 e7 12 3e cb bf 33 3c 07 7d 21 be 84 c2 fd 3c
       0.14346035 0.01097102 -0.1577035 0.030976541
000060 b1 55 05 be 34 f1 59 bd ac 10 2b bd 34 f8 08 be
       -0.1302097 -0.053208545 -0.041763946 -0.13375932
000070 80 dc 4e bd e3 fd 97 3e 5a 34 19 3d 67 95 4f 3e
       -0.050503254 0.29685888 0.037403442 0.20271836
000080 ad 98 8b be 41 d8 eb 3d de 36 3e 3e 31 b7 9c 3e
       -0.2726492 0.115158565 0.18575618 0.30608514
000090 8f e5 9f 3e c9 37 45 be 2c 9e 88 3e 82 ca 96 3e
       0.31229827 -0.19259562 0.26683176 0.29451376
0000a0 7d 7a 2a be 78 71 60 bc 19 ce 49 3d 9b 19 1e be
       -0.16648288 -0.013698928 0.049268816 -0.15439455
0000b0 e7 b0 8d 3e cd 5c a3 be 98 3c 8b be 52 d8 4e 3e
       0.27674028 -0.3190674 -0.27194667 0.20199707
0000c0 26 67 d6 be c4 28 52 3e 30 1f 85 be 71 ca a6 bd
       -0.4187557 0.20523363 -0.26000357 -0.081440814
0000d0 e9 45 9b be 24 21 8b be 1a 30 06 3e 71 3a ce 3d
       -0.30326775 -0.27173722 0.13104287 0.100697406
0000e0 f0 5e 57 3e 72 6f 72 3e b0 1e 8c 3d d3 c2 54 3d
       0.2103231 0.23675326 0.06841791 0.05194361
0000f0 31 56 68 3e d8 78 74 3e ba 43 0b be 1b 3a 24 be
       0.2268913 0.23874223 -0.13600054 -0.1603779
000100 67 50 2c be 61 1a a6 3e d5 8e ae 3c 35 17 94 be
       -0.16827546 0.32442 0.021308342 -0.28923956
000110 0d d7 4f be 19 d1 5a 3d 50 a1 43 3d d2 54 1a be
       -0.20296879 0.053422067 0.04776126 -0.15071419
000120 2a 2a 24 be a8 27 5f bd 4e 58 20 3e 08 47 99 be
       -0.1603171 -0.05448118 0.15658686 -0.29937005
000130 f9 57 ba 3d 20 47 8e 3e 88 0e ab bc 33 81 da 3c
       0.09098811 0.2778864 -0.020880952 0.026672935
000140 20 37 b3 bc 3b 45 90 3e 61 88 72 3e e0 d6 87 3d
       -0.021876872 0.2817782 0.23684837 0.06632781
000150 27 09 be be 22 7b 37 bd 15 92 d8 bd 43 b2 2d be
       -0.37116358 -0.044795163 -0.10574738 -0.16962533
000160 ab b9 81 3e c1 f2 b5 3d 85 29 33 3e e0 90 79 bd
       0.25336966 0.08884192 0.17496307 -0.06092918
000170 b1 d7 44 3e f2 d3 3a be 46 08 03 be 74 87 23 bd
       0.19222905 -0.18244913 -0.12796125 -0.0399241
000180 11 e3 24 3e de 2a 3a be c7 d0 57 be db 2b 09 be
       0.16102244 -0.18180415 -0.21075736 -0.13395636
000190 48 96 18 3e c9 db 9a 3d 26 25 7d be 2b 4b 21 3e
       0.14901078 0.07561452 -0.24721202 0.1575133
0001a0 2d cc 6c 3e cd bb 14 3e 2d ea 76 3e 3e 9c 0d be
       0.23124762 0.14524765 0.24112768 -0.13829133
0001b0 ab 56 c3 bd 57 dd fb bd 01 ea d9 bd aa bb 22 3d
       -0.09538015 -0.122980766 -0.10640336 0.03972975
0001c0 8e 7e 9a 3e e4 38 8f 3d 22 ef 25 3d 4b a0 62 3e
       0.3017468 0.06993273 0.040511258 0.2213146
0001d0 d2 9d ec 3c 8d 8c d0 bc 9a 89 00 be 44 33 02 bd
       0.028883848 -0.025457645 -0.12552491 -0.031787172
0001e0 22 bb 02 3d f1 77 1a be 5b e6 68 be 2d 70 c0 bd
       0.031916745 -0.15084817 -0.22744124 -0.09396396
0001f0 63 b7 0d be cd 38 f8 3d cd 90 29 be f3 18 ad 3e
       -0.13839488 0.12120209 -0.16559143 0.33808097
000200 36 ab a1 be a6 25 4e bd fb bc 3c 3e 0e ea 8d bc
       -0.31575936 -0.050328873 0.18431465 -0.01732352
000210 77 a3 26 3c 55 a2 59 be b1 1c 5b 3e eb 81 52 be
       0.010170809 -0.21253331 0.21397664 -0.20557372
000220 38 1a b1 bd 8a e9 8e 3e 43 cd f5 bb ae c5 98 be
       -0.08647579 0.2791255 -0.0075012757 -0.29838318
000230 9c 1b d9 bd d1 20 52 3e 10 81 3c 3e 86 df 57 3e
       -0.10600969 0.20520331 0.18408608 0.21081361

bn1.weight f4 [16]
000000 92 6c 81 3f b3 2b 80 3f dc c0 82 3f 80 50 6c 3f
       1.0111258 1.0013336 1.0215106 0.92310333
000010 57 08 6d 3f c6 cf 83 3f 73 71 6f 3f 2b 1c 8f 3f
       0.9259085 1.0297782 0.93532485 1.1180471
000020 7a 26 8b 3f ef 1a 78 3f 53 34 7f 3f b9 5e 77 3f
       1.0871117 0.969161 0.99689215 0.9662891
000030 bf 2f 72 3f bd c5 90 3f 09 f1 79 3f 5b 7b 86 3f
       0.94604105 1.1310345 0.97633415 1.0506395

bn1.bias f4 [16]
000000 a7 a3 91 3b 9b 7c 0f bd 01 b9 a9 bc 95 3a 8e bd
       0.0044445577 -0.035030942 -0.0207181 -0.069447674
000010 ee 96 c2 bb 73 b7 89 bb cc 78 9a bd f2 02 3a b9
       -0.0059384024 -0.004202777 -0.075425714 -0.0001773944
000020 f2 69 e6 39 e5 87 64 bd 7e 36 0f 3b 52 4b 83 bd
       0.00043947954 -0.05579366 0.0021852548 -0.064108506
000030 d2 6a 14 bd 61 7a 84 3d d0 0d 4c ba 6f 9b b2 bc
       -0.036234684 0.064686544 -0.00077840406 -0.021802632

bn1.running_mean f4 [16]
000000 13 73 09 bc 34 b2 b3 3b 5a 99 ff 3b db 92 8b 3c
       -0.008389252 0.00548389 0.0078002634 0.0170378
000010 e4 15 dd 3c db 6c 11 bd 95 38 c6 3c b4 b3 6a bb
       0.026987977 -0.035504203 0.024196902 -0.0035812678
000020 23 63 ff ba c9 a8 0c 3c 7c 8a ef 3a 09 5e 98 3b
       -0.0019484501 0.008585163 0.0018275524 0.0046498817
000030 29 7e 20 b9 40 c4 12 bc d7 29 d3 bb 9f 68 72 3c
       -0.00015305787 -0.008957922 -0.0064441967 0.014795451

bn1.running_var f4 [16]
000000 bc b4 83 3e ac 43 18 3e 4e 61 0b 3e 3b ee cb 3e
       0.25723827 0.14869565 0.13611338 0.39830193
000010 87 95 90 3e bd 57 c4 3f ff fa 6f 3f 95 a1 7f 3e
       0.2823908 1.5339276 0.93742365 0.24963982
000020 6b aa 36 3e 93 d7 ff 3d 37 2e 17 3e 9c 43 8e 3e
       0.17838447 0.124922894 0.14763723 0.27785957
000030 89 f0 5f 3e 4e 70 aa 3e 78 14 13 3d c5 b4 19 3e
       0.218691 0.33288807 0.035908192 0.15010364

layer1.0.conv1.weight f4 [16, 16, 3, 3]
000000 73 76 b5 bc ee 81 89 3c 3f a5 5b bc 56 a4 34 3c
       -0.022151208 0.016785588 -0.013406097 0.011025509
000010 d4 67 9a 3d 5c 9d eb 3c d6 e8 de bc 80 f5 8b bc
       0.07539335 0.028761558 -0.027210634 -0.017084837
000020 a5 eb 7b bc b3 32 d3 3d 1f 0c 90 3d f8 b4 0b 3e
       -0.015376006 0.103124045 0.07033562 0.13643253
000030 0e 4c a4 3d 3e 12 07 3d 81 80 c8 3c 8e ef f6 3d
       0.08022319 0.03297638 0.024475338 0.1205741
000040 b1 fb e8 3c 5a bd 96 3d b4 de 99 bc df ae 03 bd
       0.028440328 0.07360335 -0.018782951 -0.032149192
000050 77 4a b2 bd ce 66 00 be 7d a1 1c bd e4 ac 64 bc
       -0.08705609 -0.12539217 -0.038239945 -0.013957236
000060 fe 15 4b bd bf 35 36 3c ef 34 c2 bd 83 0e 40 3d
       -0.04958152 0.0111212125 -0.094827525 0.04688884
000070 86 02 9f ba a4 e0 77 bd 1a f4 f2 bc 88 47 76 3d
       -0.0012131489 -0.06051697 -0.029657412 0.06012681
000080 86 ff c8 3b 88 fe b2 3d 95 39 93 bd b2 44 df bd
       0.0061339764 0.08739954 -0.07188717 -0.109017745
000090 85 57 72 3c 04 54 c6 3c 86 d1 a1 bd a2 2f 00 bd
       0.014791374 0.024209984 -0.079012915 -0.031295426
0000a0 69 f5 83 3d 99 ac da 3c 9c 81 a2 3d 5c d5 81 bd
       0.06443293 0.02669363 0.07934877 -0.06339523
0000b0 9f 67 f7 3c ef a5 d8 3d f1 89 04 3d 0a e9 99 3d
       0.030200778 0.10578524 0.032358114 0.07515152
0000c0 d2 d4 94 3d 8b 9c 83 3d 0a cb 1b bb 14 77 7c bd
       0.07267155 0.064263426 -0.0023772144 -0.061637
0000d0 ea 79 64 3c e5 d3 91 3d 77 e8 96 3c 34 5f 12 3d
       0.013945082 0.07120494 0.018421395 0.035735324
0000e0 49 b6 9e 3d a6 ca a4 3d 41 b0 a3 bc 90 66 8e bd
       0.07749612 0.080464646 -0.019981505 -0.06953156
0000f0 02 3b 95 3d 73 52 e5 bc 1c 5d 5c bd f1 d1 5a bd
       0.072866455 -0.027993416 -0.053799734 -0.053422872
000100 3f 0a c5 bd b0 f7 90 3c 6e 68 62 3d 2d e5 53 bc
       -0.09621095 0.017696232 0.055275373 -0.012933058
000110 88 42 22 bd 14 66 af bb 1b 72 95 bd 86 5b ba bc
       -0.03961423 -0.005352745 -0.072971545 -0.02274872
000120 5d d5 0c bd a6 58 9a 3d 30 87 f0 3c 7a c7 81 3d
       -0.034383167 0.075364396 0.029361337 0.06336875
000130 e5 13 f5 3d f5 a8 e9 bd 34 33 4c 3d 00 98 e4 bb
       0.11966685 -0.11409179 0.04985352 -0.0069761276
000140 35 d0 12 be d5 aa 09 bc 26 26 1e 3c 8a eb 60 3d
       -0.14337237 -0.008402546 0.00965265 0.054912128
000150 91 2a c7 3d b8 90 96 bc c4 19 1a bd 86 94 2c 3d
       0.09724916 -0.018379554 -0.03762223 0.04213383
000160 e0 d9 2a bd 3f 74 b2 bc 19 91 15 bc 9f 43 e7 3d
       -0.041711688 -0.021783946 -0.009128832 0.112921946
000170 63 23 58 bb a2 ff 13 3d ce 63 a6 3d f0 c2 3c bd
       -0.0032980077 0.036132462 0.08124505 -0.046084344
000180 ca 17 ed bd 62 59 be 3c 88 c2 a3 bd a3 91 93 bb
       -0.11576803 0.02323598 -0.07996088 -0.0045034452
000190 55 1d da bc 55 d9 a6 3d 85 e1 15 3d 74 0b 8a 3d
       -0.026625315 0.081469215 0.036592025 0.06740466
0001a0 1d b8 3c bd 9c 76 af bc 6e c4 3f bd 72 9e 14 bd
       -0.04607402 -0.021418862 -0.04681819 -0.036283918
0001b0 77 c1 81 3d 07 ad d6 3a 7a a3 88 3d d7 a1 12 bc
       0.063357286 0.001637847 0.06671806 -0.008949718
0001c0 16 ec b4 3d 0b af 5e bd 7a 85 b2 3d a7 f7 7d 3c
       0.08834092 -0.054366153 0.08716865 0.015500939
0001d0 57 cb 42 bb 15 9d ef 3a 2c 16 1c bd 6f 7b bd 3d
       -0.002972325 0.0018281067 -0.038107082 0.09252059
0001e0 f8 bb 92 3b 25 57 f9 3d 31 38 f2 3d fb 49 7f 3b
       0.004477974 0.121748246 0.11827124 0.0038954008
0001f0 c1 a3 b3 3c f1 7c 2e 3c f7 ae b1 3d 69 10 0c bd
       0.02192867 0.010649906 0.0867595 -0.034195337
000200 3a 14 08 be 0e c9 bb 3c 58 98 f7 bb ec d0 b6 bb
       -0.13288966 0.022923019 -0.0075560026 -0.0055791046
000210 b2 b8 ff bc 60 eb 10 bd 72 7b 22 3d fb af 70 3d
       -0.031216 -0.03538072 0.039668508 0.058761578
000220 51 47 0e bd ae 6d d9 3c 75 8c 81 3d e0 3a e4 bc
       -0.03473598 0.026541557 0.06325618 -0.027860105
000230 b2 d1 d1 bc a6 29 4f 3b 1a 28 06 be f3 81 4b bb
       -0.025612686 0.0031610518 -0.13101235 -0.0031052798
000240 53 f0 cc bd cf b8 20 bd 12 9a 13 3d 1d ef 69 bd
       -0.10006776 -0.039238747 0.036035605 -0.0571128
000250 7f d7 a9 bc 8f 2f a3 bc 39 5a fc 3c e5 58 6e bc
       -0.02073264 -0.019920139 0.03080474 -0.014547561
000260 45 67 2d 3e 9d d2 25 be 36 da 0f be 84 6c ab bd
       0.16933925 -0.16193624 -0.14048085 -0.08370307
000270 33 20 83 bd 76 81 85 bd b6 5b a2 bd 9e 1f 15 bd
       -0.06402626 -0.06518833 -0.07927649 -0.036407106
000280 19 9f b8 bc c9 fb 61 3c 5c ea 0c bd 4d 80 52 bd
       -0.022536801 0.01379294 -0.03440319 -0.05139189
000290 af 34 e8 bd 1a c5 21 3d ea 29 18 3d 22 ae 81 bd
       -0.113381736 0.03949461 0.037149347 -0.06332041
0002a0 fd 6d 67 3c 34 67 de b9 ad 82 c6 3d a2 2a bf 3c
       0.014125344 -0.00042420032 0.09692893 0.023335759
0002b0 b0 21 91 bd 0a c0 b6 3d 0d 98 09 bc 26 ce fa 3c
       -0.070865035 0.08923347 -0.008398068 0.030615877
0002c0 cf 44 c1 bb c2 da cc 3c b0 13 db 3c 61 85 b1 3d
       -0.005898095 0.025006656 0.026742786 0.08668018
0002d0 04 c3 86 bd 8b 68 39 3d 26 a3 61 3c d9 72 cc bc
       -0.06580165 0.045265716 0.013771808 -0.024957107
0002e0 86 73 6d bd 0b 43 b5 3d 24 ac 82 bd 3f 69 21 3c
       -0.0579715 0.08850678 -0.063804895 0.009851753
0002f0 c3 3b a4 3d 5d 8f 0e 3c d8 8c 20 3b 24 ec 85 3c
       0.08019211 0.008701173 0.0024498012 0.016347952
000300 dd ea 89 bd e6 05 a8 3c 6c 61 4e 3d d8 f8 ec 3c
       -0.0673425 0.020510625 0.050385877 0.028927252
000310 54 60 bc 3d 63 a6 92 3b 24 a3 bf 3c ee bb 04 3d
       0.09198061 0.0044754012 0.023393221 0.032405786
000320 e7 e9 3a bc 90 5f 94 3d 85 3f 0f 3d fd e3 88 3c
       -0.011408306 0.072447896 0.034972686 0.016710276
000330 ae c5 6b 3d ea 5c f8 3c 49 00 f9 3c 2f 31 4b 3d
       0.05756157 0.030317742 0.030395644 0.049607452
000340 82 bb 24 bd f2 5c 4c bd c0 0d 15 bd a5 22 5f bd
       -0.040217884 -0.049893327 -0.036390066 -0.0544764
000350 5e 6e df bc 49 25 cb bd ed c1 b9 3d 36 28 83 bc
       -0.027274307 -0.09919221 0.090701915 -0.016010385
000360 95 80 ef 3c 47 e2 7b bd d9 99 ff bc e6 de 80 3d
       0.029236117 -0.06149509 -0.03120129 0.062925145
000370 22 34 78 bc cf 70 56 bd ed 42 33 3d 1a 71 9b 3d
       -0.015149148 -0.052353676 0.043764997 0.07589932
000380 13 a6 a7 bc cf 7e d4 bc ae 23 64 3d fa 2d d7 bc
       -0.020464933 -0.025939373 0.05569809 -0.02626704
000390 b4 09 8d bd a8 6e 26 bd 8a 2a 11 3d 05 6e 09 bd
       -0.06886616 -0.040632874 0.03544096 -0.03355219
0003a0 29 c1 04 3d e9 6a ce 3d 61 0d 31 3d 69 35 1b 3d
       0.032410774 0.10078985 0.04322565 0.037892733
0003b0 9c 25 d7 3c 8e 40 c9 bd 6a 11 3e bd 20 35 97 3d
       0.02626305 -0.09826766 -0.046403326 0.0738318
0003c0 07 73 94 3d 7b 82 ff 3d 8e 98 02 3e 35 da 2e bd
       0.07248502 0.12476059 0.12753507 -0.042688567
0003d0 22 a5 0f 3d 8c 5e aa 3d 73 88 6e bc 93 56 c4 3c
       0.035069592 0.08318815 -0.014558899 0.023967063
0003e0 d6 a2 97 3d 82 1e b5 3c 49 13 81 bd d4 6b 62 3d
       0.07404105 0.022109274 -0.063025065 0.055278614
0003f0 37 34 e3 3c 91 01 5f 3c 86 1f 84 3d fd cf 32 bd
       0.027734859 0.013611213 0.06451325 -0.043655384

layer1.0.bn1.weight f4 [16]
000000 d3 35 81 3f a7 5c 82 3f 7e c0 7f 3f 89 5f 86 3f
       1.0094551 1.0184525 0.99903095 1.0497905
000010 05 c1 82 3f 81 50 7f 3f 07 32 80 3f 02 41 74 3f
       1.0215155 0.99732214 1.0015267 0.95411694
000020 b1 37 81 3f a7 76 83 3f e8 76 72 3f a5 8b 81 3f
       1.0095121 1.0270585 0.94712687 1.0120741
000030 2d 4b 6e 3f c0 63 8d 3f 71 2c 6d 3f 5a df 83 3f
       0.9308346 1.1046066 0.9264594 1.0302536

layer1.0.bn1.bias f4 [16]
000000 2d dd 4d bd 71 24 0f bd 17 5f 04 bd c4 a4 b4 3c
       -0.050259758 -0.034946863 -0.032317247 0.022051223
000010 fb 40 97 3d ef 03 9f bb e6 9a 5b bd b5 cf 79 bd
       0.07385441 -0.004852764 -0.05361452 -0.0609891
000020 53 e8 8e 3b bd b0 1e 3d 13 9c 84 3b 1f 94 86 bd
       0.0043611913 0.03874277 0.004046926 -0.065712206
000030 56 e5 aa 3c 36 53 1a 3d 38 c9 2f 3d bb 44 53 3d
       0.020861309 0.037677012 0.042916507 0.05157922

layer1.0.bn1.running_mean f4 [16]
000000 28 a2 b0 3e 38 a1 2c 3e ef 50 63 bf 12 ec a2 be
       0.34498715 0.16858375 -0.8879537 -0.31820732
000010 c6 e3 a6 be 09 35 65 be d2 70 94 be b9 94 31 bf
       -0.32595652 -0.22383513 -0.28992325 -0.6936756
000020 b9 71 88 3d 34 11 1a 3f fb 7e 51 3e 03 df 21 be
       0.06662316 0.601825 0.20458595 -0.15807728
000030 b5 fc 96 bf e8 47 16 3f 48 3f 0a bf da c9 2e bf
       -1.179587 0.5870347 -0.5400281 -0.6827675

layer1.0.bn1.running_var f4 [16]
000000 0a 0d ff 3e bc 29 cf 3e 52 fb 0c 3e 36 a6 ae 3f
       0.49814636 0.40461528 0.13767746 1.3644474
000010 5f a7 c5 3f d8 ae 54 3e da 44 93 3e 51 5a 62 3e
       1.5441703 0.20769823 0.28763467 0.22104765
000020 cf c4 31 3f 6a 42 1e 3f 79 42 23 3f fe 08 03 3f
       0.6944093 0.6182009 0.63773304 0.51185596
000030 d5 7c 50 3f 6f 09 2c 3f d5 15 b7 3e a1 0f 09 3f
       0.8144048 0.67201895 0.35758844 0.5353947

layer1.0.conv2.weight f4 [16, 16, 3, 3]
000000 07 f0 7c 3c 36 a8 af bd fa c4 c5 bd 17 16 0b 3d
       0.015438086 -0.085770056 -0.09656711 0.033956613
000010 62 4c e4 bd ea f2 91 3d e6 09 15 3d e6 ce b3 bd
       -0.11147381 0.0712641 0.036386393 -0.08779697
000020 1c b5 83 3d a3 4d 3b bd c7 c1 a3 3c 13 25 8b bd
       0.06431028 -0.045728337 0.019989861 -0.06794181
000030 c3 c3 ee 3c 55 6f 0e bd 3b 95 80 3d ab 19 66 bd
       0.02914608 -0.034774143 0.062784635 -0.056176823
000040 da 36 9c 3c 79 26 bb bd b0 e0 3c 3d bd e3 a2 3d
       0.019069124 -0.091381975 0.046112716 0.07953594
000050 8b 0b 61 3d b0 3d ae 3d 2a 65 a8 bc 78 1a 55 bd
       0.05494265 0.0850786 -0.020556051 -0.052027196
000060 b1 e8 a8 3d 36 f7 35 bd 11 a2 35 bd 37 99 8a bd
       0.08247507 -0.04442521 -0.04434401 -0.06767505
000070 81 fa e2 bb d5 40 37 3d 44 29 5a bd 50 fc f4 bb
       -0.006926835 0.044739563 -0.05326201 -0.007476367
000080 7a 27 86 3d ba d5 24 bb 39 4d c5 3b 7f f0 f0 3c
       0.06550498 -0.0025151805 0.0060211685 0.029411552
000090 cf 78 d0 bc 00 e9 76 bc 04 7a cf bd 2c 74 43 3d
       -0.025448231 -0.0150702 -0.101306945 0.047718212
0000a0 10 a1 e4 bd 81 8f 01 be c2 d1 9f 3c ba 1a 97 3c
       -0.11163533 -0.12652399 0.0195092 0.018445361
0000b0 3e 1c 7f bd 65 ea 94 bd cb 7e 32 bd 37 a4 f4 3d
       -0.062282793 -0.0727127 -0.04357795 0.11945384
0000c0 a7 4d bd 3d 36 91 80 bd 31 d4 95 3d 75 3d 3c bd
       0.09243327 -0.06277697 0.07315863 -0.045957047
0000d0 64 e1 ae 3d a6 42 f3 bc 6d 7b 05 bc 7e b9 de 3c
       0.085390836 -0.029694866 -0.008147103 0.027188059
0000e0 d4 6e 8f 3d 88 a8 b9 bd ab 5d 0c 3c 6f f1 f0 bc
       0.07003561 -0.09065348 0.008567254 -0.029412
0000f0 7d 74 77 bd df d7 92 3d aa be b9 3d 85 57 29 3d
       -0.060413826 0.071700804 0.090695694 0.04134323
000100 d1 22 e4 3c 0f b5 3c 3d 39 5f 40 bc 9d 15 eb bb
       0.027848633 0.04607111 -0.011741453 -0.0071742074
000110 b3 3c ad 3d 20 b4 b3 3d d7 0d 46 bd c2 8b f2 bd
       0.08458843 0.087745905 -0.048353042 -0.11843063
000120 70 52 41 3d a0 04 f6 bd 68 2b 58 bd 0b f5 17 bc
       0.04719776 -0.12012601 -0.05277577 -0.009274731
000130 60 3f b5 ba 7b 96 e8 3c f8 2b 11 3d e5 eb 58 3c
       -0.0013828091 0.028392067 0.035442322 0.013239835
000140 75 93 f1 bc 84 30 2f 3d 11 2a 7c 3d 0c 30 4b bc
       -0.029489258 0.042770877 0.061563555 -0.012401592
000150 89 13 f7 bc bd 1a 01 3d c6 06 9b bd b9 3f 38 3d
       -0.030160682 0.03151964 -0.07569651 0.044982646
000160 53 51 47 3d 06 59 6c 3c f1 f5 c3 3d 5d 05 c6 bc
       0.04866154 0.014425522 0.09568394 -0.02417248
000170 8b 50 32 bd ce d7 2b bc e2 c6 7a 3d 95 eb 7a 3d
       -0.043533843 -0.010488464 0.061224826 0.061259825
000180 8c 40 06 3e 24 31 a4 3d d8 cd 93 3d 66 9d e8 3c
       0.1311056 0.08017185 0.07216996 0.028395366
000190 9b a5 03 be 34 2c 65 bd 9a 92 e5 bd 2a c0 80 bd
       -0.12856142 -0.05595036 -0.11209603 -0.062866524
0001a0 a7 20 dd 3c 58 68 7f bd ac ae 99 bd 18 dd a7 bc
       0.026993109 -0.06235537 -0.07504019 -0.020491168
0001b0 3e 88 68 3d a5 b1 a8 bc 99 17 3a 3d 9e ba 44 3c
       0.056770556 -0.02059252 0.04543266 0.012007384
0001c0 e0 7d 58 bd 73 9a 55 3d b6 af 68 3d 82 00 4c bd
       -0.05285442 0.052149247 0.056808196 -0.04980517
0001d0 7e ce 29 3d 69 d2 6a bd 1e 50 4c 3a e4 36 43 bd
       0.041456692 -0.05732957 0.0007793921 -0.04765977
0001e0 8d f8 6b bd 49 a8 e8 bd 66 8a a5 bd c5 d1 b4 bd
       -0.057610083 -0.11360223 -0.08083038 -0.08829073
0001f0 ff 4d a0 3d 93 28 4c 3d a6 8d cb 3d 37 d9 a0 3b
       0.078273766 0.049843382 0.09939127 0.0049087065
000200 2b 6a 61 bd 28 ec 62 3c 08 1f 6e bc f6 6d b4 bb
       -0.05503289 0.013850249 -0.014533766 -0.0055062724
000210 c0 e0 58 bd 43 e5 b7 bc 86 36 02 bd 29 d5 49 3c
       -0.052948713 -0.022448188 -0.03179028 0.012318888
000220 08 0a a2 bd 9d 3f 18 bd 2b 00 81 bd f9 68 98 3d
       -0.079120696 -0.03717004 -0.0629886 0.07441897
000230 b0 cc cd bc b6 f7 40 bd 6a d3 b2 3d 91 ec b0 bc
       -0.025122017 -0.047111236 0.0873173 -0.021597179
000240 c4 d0 f6 bc 3f b4 69 3d 62 55 4a bd c4 86 8e bc
       -0.030128844 0.05705666 -0.049397834 -0.017398246
000250 ff b1 0d bd 3c 59 0f 3d 2e a8 a1 3d f2 eb c8 3d
       -0.03459358 0.03499721 0.07893406 0.09810628
000260 16 12 07 bc 80 eb 8c ba d9 51 05 3d 5f 5e d7 3b
       -0.008244058 -0.0010751337 0.03254876 0.006572529
000270 40 df 62 3c 55 4e 22 3d fc bb 8b bd e5 5e b8 bc
       0.013847172 0.039625484 -0.068229645 -0.022506187
000280 9f a5 9e bd 4b 40 9c bd 35 27 0c 3c 4e 37 58 3d
       -0.077464335 -0.076294504 0.00855427 0.052787118
000290 f1 de 77 3d 99 f9 d5 3d 85 70 13 3d f4 cd a0 3d
       0.060515348 0.104479976 0.03599598 0.078517824
0002a0 80 1e 90 bc 52 bc ef 3d 54 6b 08 3b 05 12 ee bc
       -0.017592669 0.11705841 0.0020815926 -0.029061327
0002b0 3a b5 87 bc d5 8c df bd 8b b5 d7 ba c8 5f 4d 3d
       -0.016565908 -0.109155335 -0.0016457302 0.050140172
0002c0 50 1e 9e 3c df 5c fe 3c 3d d3 7e 3d 71 fb c5 3c
       0.019301564 0.031050144 0.06221317 0.024167748
0002d0 b5 c7 b4 bd 26 a6 8d bd ff 07 5c bd ac 94 03 bd
       -0.088271536 -0.06916456 -0.053718563 -0.032124206
0002e0 24 ff 01 bc 39 de 62 3c 58 4e 65 bd ba e9 01 bd
       -0.007934365 0.013846927 -0.055982918 -0.03171704
0002f0 65 18 ad bc 9f 89 7c bd 84 26 2b bd 64 53 4d 3d
       -0.021129796 -0.061654683 -0.04178478 0.050128356
000300 07 aa 95 bd 06 06 9d bd a3 d2 e3 3c c8 b3 9a bd
       -0.07307821 -0.076671645 0.0278104 -0.07553822
000310 ac 7f 25 3c 01 ac 17 bd 1a 19 45 bd 91 95 52 bc
       0.01010124 -0.03702927 -0.04811964 -0.012853042
000320 23 6a 8b 3d 56 41 1c bd 4b 14 dd bb ed 22 08 3d
       0.06807353 -0.038148247 -0.006746804 0.033236433
000330 33 83 20 bd d4 ec 0c bd 42 89 76 3d 42 8b ff 3c
       -0.03918762 -0.034405544 0.060189493 0.031194333
000340 da ca 37 3d 72 60 26 bd 24 25 18 3d 60 2a 5d 3d
       0.04487119 -0.04061932 0.037144795 0.05399549
000350 e0 ef c6 3d fa 9a c4 3d 60 95 68 3d bc 78 8b 3d
       0.09713721 0.09599872 0.05678308 0.06810138
000360 49 52 36 3a 54 b8 3e 3c 71 a9 a7 3d b8 0f c3 bd
       0.00069550105 0.011640627 0.08186615 -0.095244825
000370 65 b4 8f 3c 31 f6 83 3d 10 63 a4 bd 41 f9 32 bc
       0.017542074 0.06443442 -0.08026707 -0.010923685
000380 82 a0 5a 3d 95 c5 72 3d fe a3 ab 3d 3c 74 a7 bc
       0.05337573 0.05927046 0.083808884 -0.020441167
000390 16 79 e4 bc b4 09 e5 3c 73 fd 2d 3d dc 68 aa bd
       -0.02788977 0.027958728 0.042478036 -0.083207816
0003a0 bc 9d 21 bc 82 2a c9 3c 39 fa 6b 3d fd 8e 22 3d
       -0.009864267 0.024556402 0.057611678 0.039687146
0003b0 d7 50 a2 bd 0b b8 92 bd e5 34 3c 3a e6 15 31 3b
       -0.07925575 -0.0716401 0.0007179513 0.002702111
0003c0 c8 08 2f bd c5 e2 d4 bd ee ce 2f bc f7 0d 8e bc
       -0.042732984 -0.10394815 -0.010730488 -0.017340643
0003d0 a2 19 97 3c 70 97 ac bd d7 b6 bc 3d 70 70 ae 3d
       0.01844484 -0.08427322 0.092145614 0.085175395
0003e0 31 c7 e8 bc 26 02 08 3d aa 84 7b bc 4c 53 9d 3d
       -0.028415294 0.033205174 -0.015351454 0.07681903
0003f0 76 db a8 3b 47 ba 62 3d 74 10 46 bc 1c 9b 82 3d
       0.005153115 0.05535343 -0.012088884 0.06377241

layer1.0.bn2.weight f4 [16]
000000 95 9f 80 3f 4d dc 78 3f bf 4b 84 3f d8 53 89 3f
       1.00487 0.9721115 1.0335616 1.0728712
000010 6f e6 7f 3f 68 5f 7c 3f 55 96 7d 3f 5c 51 88 3f
       0.9996099 0.9858308 0.99057513 1.0649829
000020 a3 6d 82 3f 71 25 84 3f ff 87 76 3f 23 e2 7d 3f
       1.0189708 1.0323926 0.96301264 0.9917318
000030 99 5b 80 3f 6d 3a 77 3f 78 7e 80 3f 35 18 7e 3f
       1.0027953 0.96573526 1.0038595 0.99255687

layer1.0.bn2.bias f4 [16]
000000 79 0e 92 3c 6b a3 86 3b f6 02 db bc 91 7d a9 3d
       0.017829167 0.0041088364 -0.02673481 0.08275903
000010 98 2c 60 bd 03 b7 3d bc 9e e9 55 bd b0 3f 89 bd
       -0.054730028 -0.011579278 -0.052224748 -0.067016006
000020 9d 85 25 bc 87 16 00 bd ed 39 37 bd b4 66 fc bb
       -0.010102657 -0.031271484 -0.044732977 -0.007702673
000030 7d b1 8d bd 30 d2 d8 3c ee d8 8a bb 2e 1d 94 3c
       -0.06918619 0.026467413 -0.004237286 0.01808032

layer1.0.bn2.running_mean f4 [16]
000000 f9 b1 48 be b7 12 2c be 1f 6f 0c bf f1 5b 17 3e
       -0.19599141 -0.16804014 -0.5485706 0.14781167
000010 b2 6c 91 be 7c 4d d8 be 3d ce 8c 3d e3 de c8 be
       -0.2840324 -0.42246616 0.06875274 -0.3923255
000020 91 e0 e0 3e 62 08 ce be a5 37 c9 3e 5e 2a 19 bf
       0.4392133 -0.4024077 0.39300266 -0.5983027
000030 da 52 9d 3e c5 23 46 3f ca bc fa be 97 d5 7a 3e
       0.30727273 0.7739833 -0.4897216 0.2449554

layer1.0.bn2.running_var f4 [16]
000000 88 2a 85 3e ec 87 74 3f 2b 88 6f 3e 94 18 1d 3f
       0.2600901 0.955199 0.23391788 0.6136563
000010 40 dd 68 3f e1 77 ee 3e b2 91 24 3f 39 57 6b 3e
       0.909626 0.46575835 0.64284813 0.22982492
000020 3c e6 80 3f a0 44 dd 3e ef 8b 41 3f b1 16 c5 3e
       1.0070262 0.4321642 0.75604147 0.38493875
000030 9c be d5 3e 72 7d 8e 3f 9a 05 45 3f c7 a1 c0 3e
       0.41746986 1.1132033 0.7696167 0.37623426

layer1.1.conv1.weight f4 [16, 16, 3, 3]
000000 70 01 a9 3d 3c 71 ac bc 85 8a 4b bd 03 75 84 3d
       0.08252227 -0.021050088 -0.04969265 0.06467631
000010 7d 32 cb 3d bb 25 92 bd 19 8c ee 3c b4 24 dc bd
       0.09921739 -0.07136103 0.029119538 -0.10749188
000020 35 02 a9 bc 90 b1 2f bd f7 b4 60 3d 40 a2 ab 3c
       -0.020630935 -0.042893946 0.05486008 0.02095139
000030 98 04 95 bd 62 2f 16 3d ad 66 2a 3d 72 fe 3a bd
       -0.07276267 0.03666628 0.041601826 -0.045652814
000040 63 f2 78 3d d3 4f 43 3b 25 92 2d bc 84 22 ca bd
       0.060778033 0.0029802218 -0.010593926 -0.098698646
000050 a6 3f f8 3a b1 ab 1b bc d2 ab 93 bd 1f 4a 6c bd
       0.0018939867 -0.009501384 -0.072105065 -0.057687875
000060 f7 fe fe bd 7f 65 c1 bc 8b 79 41 bd 91 a5 b6 3d
       -0.124509744 -0.023607967 -0.047235053 0.08918298
000070 a4 e7 1c 3e 88 6d 23 3e 07 93 9c 3d cd 4c ad 3d
       0.15322739 0.15959752 0.07645231 0.08461914
000080 cc ef ae 3d 10 04 8e 3d 21 ae 89 3d e9 94 84 bc
       0.085418314 0.069343686 0.067226656 -0.016184287
000090 4a 41 f7 bc 2d ec a1 3c 1d ed 3e bd 8f 06 a7 3c
       -0.0301825 0.019765938 -0.046612848 0.02038887
0000a0 dc f1 8a 3d 06 31 46 bd 80 83 90 bd e9 99 6b 3d
       0.06784412 -0.048386596 -0.07056332 0.057519827
0000b0 5d 4e 9a bb db d6 ba 3c 8e e3 81 3d a7 fc 8d 3d
       -0.0047090487 0.02280753 0.06342231 0.06932955
0000c0 1c 64 9e 3d 05 7e 39 3d b9 38 3f bd 7e cb 49 3d
       0.07733938 0.045286197 -0.046684954 0.04926633
0000d0 72 00 b7 bd a1 cc d2 bd 87 d0 92 3c 34 cb 70 3d
       -0.08935632 -0.10292936 0.0179217 0.05878754
0000e0 b9 ad 86 3b 87 75 54 bd e2 05 91 3c 74 e0 05 ba
       0.004110065 -0.051869895 0.017703 -0.00051069935
0000f0 77 04 30 3c d8 8a d8 3b 52 0d b5 3c d0 a2 24 3d
       0.010743252 0.0066083483 0.022101078 0.040194333
000100 28 11 58 bc 83 6c 8b bd 23 dd 35 3d 2a c6 b2 3d
       -0.013187684 -0.06807806 0.044400346 0.08729203
000110 4c f9 41 3d fa 80 00 3e b8 45 f1 ba 18 d5 c2 bd
       0.04735689 0.125492 -0.0018407619 -0.09513301
000120 42 d6 1e 3d cb 93 23 bd d2 dc 77 3d f5 6a 6d bd
       0.03877855 -0.03993587 0.060513325 -0.05796333
000130 f8 25 09 bd ff c3 90 3c 7b 64 99 3d ce 5b c5 3c
       -0.033483475 0.017671583 0.07489868 0.024091627
000140 27 73 08 3d 21 5d 1a 3e e0 ad 1d 3e fd f2 ed 3d
       0.033312943 0.15074588 0.1539836 0.11618612
000150 6c 1f ad 3d 87 42 25 3d 34 19 e0 3d df da 47 3c
       0.08453259 0.04034665 0.10942307 0.012198179
000160 b4 0e 2c bd 1f 62 c9 bc c7 da b6 3d ae ad 8c bd
       -0.04200621 -0.02458292 0.08928447 -0.06869064
000170 60 2e 1b 3d 91 79 94 bd 13 c0 15 bd 38 62 a0 3d
       0.037886024 -0.072497495 -0.03656013 0.07831234
000180 86 76 78 3d fc 21 83 bd a4 27 4a bc c6 76 c3 bd
       0.060659908 -0.064029664 -0.012338553 -0.095441386
000190 fd 5b 2d bd 05 06 97 3c 30 16 66 bd 09 ff 7b 3d
       -0.042324055 0.018435488 -0.056173503 0.061522517
0001a0 af e7 9a 3d 6f 3e 4a 3d 7a e3 86 3d c8 7c 11 3d
       0.075637214 0.049375948 0.065863565 0.03551939
0001b0 57 e0 cc 3d 1a c6 46 3d e9 5f af 3d c8 c5 27 3d
       0.10003727 0.048528768 0.08563215 0.040960103
0001c0 db 23 30 bd 4d 48 3c 3d 1e a5 b3 bd 23 a0 8b 3d
       -0.043002944 0.04596739 -0.08771728 0.06817653
0001d0 f9 59 40 bd 44 a7 04 bd 23 64 24 bd 38 d6 83 3d
       -0.046960805 -0.03238608 -0.04013456 0.06437343
0001e0 3b 53 a0 3d d0 1d 4d 3d 79 cf 21 bd f8 ab 4e 3d
       0.07828375 0.05007726 -0.039504502 0.05045697
0001f0 36 0e 6d 3d 1a 32 ab 3d 1e fd c3 bc fe 3f 3e 3c
       0.05787488 0.083591655 -0.023924407 0.011611937
000200 8b da 4e bc 22 77 a9 bd bb ab 86 bc 03 62 3d bd
       -0.012625347 -0.08274676 -0.01643931 -0.04623605
000210 85 ac 86 bb 67 c4 4b 3b 0d a2 06 bb 3f 8d fb 3c
       -0.0041099214 0.0031092407 -0.0020543367 0.030707
000220 43 5e 4b 3c 82 09 ad 3c 54 05 2d bb 83 52 67 bd
       0.01241261 0.021122698 -0.002640088 -0.056475174
000230 08 ff c7 3a 6c c6 c9 3a 24 e9 ab bd 81 f1 37 bd
       0.00152585 0.0015394217 -0.083940774 -0.04490805
000240 99 11 e6 bd 98 90 2d bd a8 21 57 3d ff 76 f4 bb
       -0.11233825 -0.042374223 0.05252233 -0.0074604745
000250 d7 d8 0d 3d 8b 9d 19 bd c0 c5 c9 bc 6d 91 05 3b
       0.034630623 -0.03750376 -0.024630427 0.002038087
000260 75 0c 3f 3d 34 a1 4a bc b4 b6 1c bd 87 74 03 3e
       0.04664274 -0.012367535 -0.038260177 0.1283742
000270 0f 07 3d 3d 64 2b 9c 3c 6d 56 56 3d 9d f7 15 bd
       0.04614931 0.019063659 0.052328516 -0.036613096
000280 1a 9f 29 3d d1 fc a6 3c e6 8e d1 3b 30 13 31 3d
       0.041411497 0.020384224 0.0063952086 0.04323119
000290 74 81 8e bd 4e fb 5d 3d 4b 60 49 3c ca 75 90 bd
       -0.06958285 0.05419474 0.012291024 -0.070537165
0002a0 ea 93 84 3d ac 9f aa 3d bd 4d a4 bb 4c 92 7d bb
       0.06473525 0.08331236 -0.00501415 -0.0038691936
0002b0 56 1e 9d bd ca f0 0c bd 86 4e 21 bc b3 4c 44 bd
       -0.07671802 -0.03440932 -0.009845382 -0.04792471
0002c0 07 59 e9 3c 2a 46 94 bd 74 63 6d bd 50 3a bd 3c
       0.028484834 -0.07239945 -0.057956174 0.023099095
0002d0 06 15 58 bc 07 8c 32 3c 88 db cb bd 62 c9 38 bd
       -0.013188606 0.010897643 -0.09953982 -0.04511393
0002e0 c3 7c 83 bd f0 b3 8e bd b3 c0 fe bc ce 20 b0 bb
       -0.06420281 -0.06967914 -0.031097746 -0.0053750044
0002f0 f6 7c 01 bd 8b e9 7c bc d1 0e 86 3d 18 ce 6d 3c
       -0.031613313 -0.01543654 0.06545795 0.014514469
000300 ac d1 de 3d aa 68 0c 3e 89 69 d8 3d be 33 93 3d
       0.108798355 0.13711801 0.10567004 0.071876034
000310 31 7c c2 3d 8c 45 bd bb 02 4a fa bc 34 60 87 3d
       0.09496344 -0.005776113 -0.030552868 0.06610146
000320 31 90 af bd dc 65 7d bd c5 ea 0d 3b 4e 75 ad bb
       -0.08572424 -0.06186472 0.0021654826 -0.005293525
000330 19 31 a5 3c 13 42 2f bc 2b 3d 1e 3d 57 e1 a1 bd
       0.020165013 -0.010696906 0.038632553 -0.07904308
000340 a9 dc 6c bd 1e 15 c8 3d 65 25 04 3d ea 15 c0 bd
       -0.057827625 0.09769653 0.032262225 -0.0937918
000350 95 a1 99 3c 59 81 3f bb 53 61 81 bd f9 43 c6 3b
       0.018753806 -0.0029221384 -0.06317391 0.0060505834
000360 a2 95 35 bd 08 c5 1d bc 06 da 82 bc f5 99 95 3d
       -0.044332154 -0.009629495 -0.015973102 0.073047556
000370 6b 9d 7c 3d 2b 71 7f bd 84 91 aa 3d 30 e1 01 3d
       0.061673563 -0.062363785 0.08328536 0.031708896
000380 c1 38 9a bd be c3 d8 bc c8 a6 78 3d 95 74 03 bd
       -0.07530356 -0.026460525 0.06070593 -0.032093603
000390 19 ea b5 3d 83 9a e6 3d 2b 46 c0 bc bd b8 ab 3d
       0.08882541 0.112599395 -0.023470959 0.083848454
0003a0 f9 fb e7 3d 76 bf d2 3c 7e 98 ad 3b 79 10 41 bd
       0.11327357 0.025726061 0.0052977195 -0.04713485
0003b0 3c 68 c3 bd 2a 93 3f bb fc f5 5d bd c7 b8 08 bd
       -0.095413655 -0.0029232004 -0.054189667 -0.033379342
0003c0 92 e3 9d bd 32 80 cd 3c 74 e9 40 3d a0 8f ae 3c
       -0.07709421 0.025085542 0.04709764 0.02130872
0003d0 6a 99 7e 3d cc af 9d 3d af c1 87 3d 6e 56 30 3c
       0.062158026 0.07699546 0.06628739 0.010762794
0003e0 75 20 8d bc 16 8d 42 3d d6 60 bd 3d 4e f8 de bc
       -0.01722739 0.04749783 0.092469856 -0.02721801
0003f0 d8 76 6a 3d 99 76 8a 3d 2f 5f 23 bd 35 67 82 3d
       0.057242244 0.06760902 -0.039885696 0.063673414

layer1.1.bn1.weight f4 [16]
000000 e8 4d 8a 3f e5 4a 6b 3f a4 36 7a 3f f9 87 85 3f
       1.0805025 0.91911155 0.97739625 1.043212
000010 e7 cf 7f 3f 63 af 85 3f 23 9e 83 3f ed 32 70 3f
       0.9992661 1.0444149 1.0282634 0.93827707
000020 92 7b 7f 3f 58 ad 7d 3f 22 b1 7c 3f c7 74 80 3f
       0.9979793 0.99092627 0.98707783 1.0035638
000030 52 7f 81 3f b7 c5 72 3f ef 87 81 3f 9f 35 74 3f
       1.011698 0.9483294 1.0119609 0.9539432

layer1.1.bn1.bias f4 [16]
000000 e1 69 06 3d 48 5d 19 bd 2d e3 cf bd d9 b7 09 3d
       0.032815818 -0.037442476 -0.10150752 0.033622596
000010 f7 34 3c bd 00 07 8c bd 65 9b 03 bd c4 16 85 bd
       -0.04594895 -0.06837273 -0.032130618 -0.06498483
000020 17 f1 91 bd 60 0e c4 3c 29 f7 9d bd a1 f0 b6 bb
       -0.07126062 0.023932636 -0.07713158 -0.0055828844
000030 35 7f ba bc 81 1e 1b bd 4b c9 1c bd 24 57 ac bc
       -0.022765735 -0.037870888 -0.038277905 -0.021037646

layer1.1.bn1.running_mean f4 [16]
000000 83 57 65 3f 37 c8 bd 3e bc 73 0c bf 37 02 1d bf
       0.8958666 0.37066814 -0.54864097 -0.61331505
000010 37 e8 fa 3e ee 03 ce 3e 55 df 01 3d 5c dc 7a 3e
       0.4900529 0.40237373 0.031707127 0.24498123
000020 d3 a1 52 3e c8 35 9e 3f 86 eb a1 3e 70 e6 87 be
       0.20569544 1.2360163 0.31625003 -0.26542997
000030 62 1b c1 be bd 63 a3 3d 56 23 a4 bf 27 33 3a bf
       -0.37716204 0.07978008 -1.2823284 -0.727343

layer1.1.bn1.running_var f4 [16]
000000 f8 bf 93 3f 3a c2 2c 40 87 46 50 3f 33 65 dd 3f
       1.1542959 2.6993546 0.81357616 1.7296509
000010 69 6a ae 3f e8 40 92 3f 40 b3 3c 3f 2f a1 a4 3f
       1.3626224 1.1426058 0.73711014 1.2861689
000020 8c ce 8f 3f 69 cf 95 3f ce 6b 66 3f 58 03 e9 3f
       1.1234908 1.1703922 0.90008247 1.8204145
000030 59 45 e2 3f a0 e2 37 3f fd 3b f6 3f 3e 1e d4 3f
       1.7677413 0.7183018 1.9237057 1.6571729

layer1.1.conv2.weight f4 [16, 16, 3, 3]
000000 ff 9c 1b 3d 93 96 c4 bd 4c 74 01 bc 72 07 19 3c
       0.03799152 -0.09599032 -0.0079012625 0.009340154
000010 c5 e7 1b bd 57 c2 c8 3b ba e9 44 3d 83 6e be bd
       -0.03806283 0.0061266827 0.04807446 -0.09298422
000020 ec 08 2e 3d 1c cf 89 3d 23 35 4c bd d2 e7 c3 3d
       0.042488977 0.06728956 -0.049855363 0.095657006
000030 8a 28 d3 3c 83 b6 91 3d 8b 93 de 3c b3 fb 15 bd
       0.025776166 0.071148895 0.027169963 -0.036616992
000040 7f 1e 64 3c b9 d1 34 3b f1 2f 16 3d 40 6e ba 3d
       0.013923286 0.0027590825 0.036666814 0.0910306
000050 84 05 00 3e a0 8a 32 bd 32 6c 5f 3d 2d 40 be ba
       0.12502104 -0.043589234 0.054546542 -0.0014514975
000060 b5 30 e3 bc b5 2e ab bd d3 f8 aa 3c 11 45 89 3d
       -0.027733186 -0.08358518 0.020870602 0.067026265
000070 7c ea 5b bd 24 38 1b 3d 01 29 56 3d 2f 86 0d bd
       -0.05369042 0.037895337 0.052285198 -0.034551796
000080 3a 2d 7e 3d eb 74 1c 3d c9 b6 85 bd 8e 88 02 3e
       0.06205485 0.03819744 -0.06529004 0.12747404
000090 9f d6 b7 3d 56 19 1a bd 4e 1c 9f 3d 9f b3 30 3d
       0.089764826 -0.03762182 0.077690706 0.04314005
0000a0 17 d4 8b 3d 53 bc 00 bc 26 40 7d bd 18 b5 72 bd
       0.06827562 -0.0078574 -0.061828755 -0.059254736
0000b0 5f 63 c1 3c 23 8b 2a 3c 6f 89 72 bc c1 14 99 bc
       0.023606954 0.010409149 -0.014803275 -0.018686654
0000c0 3a 0b 2d bd 23 c0 1d 3d e8 8c da 3d 78 87 cf bb
       -0.042247035 0.038513314 0.10671407 -0.006333288
0000d0 b4 b7 31 3d 75 40 20 3d 7c 0c 88 bd 60 f2 c8 bd
       0.043388084 0.03912397 -0.06643006 -0.09811854
0000e0 f3 48 00 bd 39 26 11 be 68 22 90 bd 92 0d 23 bd
       -0.03131957 -0.14174737 -0.070378125 -0.039807864
0000f0 1e ed 9a bd 92 8f 12 bd 59 5f c5 3d 9b 13 51 3d
       -0.07564758 -0.03578145 0.09637327 0.051044088
000100 09 fc ad bc 58 2b 91 3d d6 84 7b bc 27 41 5a 3d
       -0.021238344 0.07088345 -0.015351495 0.05328479
000110 eb ce 4c 3c 52 03 06 bb 84 28 5a ba 07 89 12 bd
       0.012500505 -0.0020448756 -0.00083220773 -0.03577521
000120 5a 41 b0 3d 12 ec bf bd e8 e6 cd bd 74 b8 e4 bc
       0.08606215 -0.09371199 -0.100538075 -0.027919985
000130 49 ea 78 bd 82 b3 59 bd d4 2c 00 bb c3 ab 00 bd
       -0.060770307 -0.053149708 -0.001955797 -0.031413805
000140 98 fe bc 3d 25 3e 04 bd b5 16 5e 3d 19 5b 4f 3d
       0.092282474 -0.03228583 0.054220874 0.050623987
000150 1d d9 cf bc 1d 3d 57 3d 24 55 a1 3d f3 4f b3 3d
       -0.025372082 0.052548517 0.078775674 0.087554835
000160 c1 30 99 3d 97 cf 5c bd 26 b7 a4 3d d2 26 18 3d
       0.07480002 -0.05390891 0.08042745 0.037146397
000170 80 1a 6e 3b 3e f8 51 bd dc 61 cb 3d e3 e5 2a bc
       0.0036331713 -0.051262133 0.099307746 -0.010430786
000180 99 70 33 bd ea f6 6e bd 2d 92 2f bc ba 66 9c 3d
       -0.043808553 -0.058340944 -0.010716003 0.07636781
000190 cb ff e1 b9 08 3a 50 bd 20 54 82 bc 9f ca fd bc
       -0.00043105925 -0.050836593 -0.015909255 -0.030980406
0001a0 79 59 82 bd 54 21 25 3e 98 d9 dd 3c da a6 20 bd
       -0.06364722 0.16125995 0.027081296 -0.039221622
0001b0 4e b4 d4 3c cd 01 2a 3d d9 b9 a5 bc 11 04 fb ba
       0.025964882 0.041505624 -0.02023022 -0.0019150992
0001c0 45 4b 0d bc be 74 5b bd a3 11 9e 3d e0 6a 5a 3d
       -0.008623903 -0.05357813 0.07718208 0.05332458
0001d0 10 c0 40 3d f0 ee 34 3d fa 11 cf 3d 9a ba 24 bd
       0.047058165 0.04417318 0.10110851 -0.04021702
0001e0 9e 74 84 3d f2 1e 98 3d 9d 01 b6 bb b0 42 fa bc
       0.064675555 0.07427777 -0.0055543915 -0.030549377
0001f0 4d 86 b1 bd 9a bc 41 bd b5 7e a9 3d dc 59 1a bc
       -0.08668194 -0.047299005 0.082761206 -0.009420838
000200 d9 52 a2 3d 53 41 39 bd 65 81 4a bc 16 d4 4d bd
       0.07925958 -0.045228314 -0.012359952 -0.05025109
000210 33 e1 99 bd 84 80 3c 3d b6 f0 96 bc f7 b3 a9 bc
       -0.075136565 0.046021 -0.018425327 -0.020715697
000220 22 57 fe bc e2 af 15 bd 88 14 90 3d a4 a6 3b bc
       -0.031047408 -0.036544688 0.07035166 -0.011453304
000230 0b 4f 01 3e 27 bc 5b bd ce ef 92 3d 15 d2 51 3c
       0.12627809 -0.053646233 0.07174645 0.012806435
000240 73 f6 0c 3d e0 57 e4 bd f1 f8 30 bd 6b cd 9d bd
       0.03441472 -0.11149573 -0.04320616 -0.07705196
000250 0a 14 6c bd 75 20 1e 3d 79 97 87 bd 0e d9 0f 3d
       -0.0576363 0.038605172 -0.06620688 0.03511911
000260 2b 8e 48 3b 21 22 1f 3a fc e8 6a bd f8 a9 80 bd
       0.0030602317 0.0006070454 -0.057351097 -0.06282419
000270 61 91 0f 3d 16 84 1f 3d 9d 7d 1d 3d 23 17 00 3c
       0.035050754 0.038944326 0.038449872 0.007818016
000280 d4 39 8f 3d 8d 8e a2 bc 4b 5a d9 3d 5e a7 4c 3b
       0.06993452 -0.019843364 0.10612925 0.0031227688
000290 78 39 78 3c 97 2c 37 3d ca 84 ee 3b b2 8a a8 3c
       0.01515042 0.04472026 0.0072790133 0.020573948
0002a0 2c d9 5b 3d 7a 9f 62 3d a3 dc 90 3d 07 cf c4 bd
       0.053673908 0.05532787 0.07073333 -0.096098
0002b0 e0 d5 b1 bd 9f 35 eb bc 7f 43 27 3d 41 fe 70 bd
       -0.086833715 -0.028712092 0.040835854 -0.058836225
0002c0 80 5b 2c 3d 53 ea 06 3d 5e 94 44 bd 6e 3e e7 bc
       0.04207945 0.032938313 -0.047993056 -0.028228011
0002d0 91 b5 e7 3c 7b 87 2b 3d 1b 5e 5a bd 57 57 d3 3d
       0.02828482 0.04187725 -0.053312402 0.10319393
0002e0 37 af ba 3d 27 2b 6a bc 3e c0 20 3d 26 ff b8 3d
       0.09115451 -0.014292515 0.039245836 0.09033041
0002f0 ea 79 91 bd df 46 eb 3d 6b 0e 0c 3e 2a c2 30 3e
       -0.071033314 0.11488127 0.13677375 0.17261568
000300 53 9d b5 3d 21 b1 d7 3c a3 88 d2 3d dc 98 33 bb
       0.08867898 0.026329579 0.10279968 -0.0027404344
000310 ef 7e 82 3d 8f 25 c7 3c d2 d6 7c 3c e8 01 07 be
       0.06371867 0.024309902 0.0154320765 -0.13184321
000320 29 8f 55 3d 56 b1 7d 3a 54 7e 3f bc 37 f8 6c bd
       0.05213848 0.0009677609 -0.011687834 -0.057853904
000330 69 a8 07 bc 39 40 0b bc c2 80 04 bd a4 3b ee 3b
       -0.008279898 -0.008499199 -0.032349356 0.0072702933
000340 e3 d4 75 3c 54 29 9e 3d 77 52 fa 3c b1 aa 4e bd
       0.015004369 0.077227265 0.0305569 -0.050455753
000350 91 aa 9c bc 7b fa 35 3c 22 e2 12 3d c9 4f 38 3d
       -0.019124301 0.0111070825 0.03586019 0.044997964
000360 8d a0 19 3d 7f 68 cd bc 8d 81 dc 3c b5 e1 6d 3b
       0.03750663 -0.025074242 0.026917243 0.0036297862
000370 ba 1e df bb 7a 75 91 3d e8 30 5a bb cf d2 09 3d
       -0.006809083 0.07102485 -0.003329331 0.03364831
000380 73 9b a7 3d ec 7a ee 3d b4 19 f3 3d dd 6a 5a 3d
       0.081839465 0.11644539 0.11870137 0.05332457
000390 b0 c3 f9 3c 12 fd c0 3d df 76 76 3d ee 6e 4e 3d
       0.030488819 0.09423269 0.060171958 0.05039876
0003a0 bc 29 4c bc e7 2b 15 3d 95 12 e6 bc a4 7e 95 bc
       -0.012461122 0.03641882 -0.028085032 -0.018248864
0003b0 92 cc 3a bb db 74 88 3d 13 45 2f bd ba 14 4f bd
       -0.002850328 0.066629134 -0.042790484 -0.050556876
0003c0 04 c5 6c 3d a0 74 49 bd b9 38 79 3d 23 6c 2a 3d
       0.057805076 -0.049183488 0.06084511 0.041607033
0003d0 b1 eb d2 3a 39 af 5d 3d 9e d9 ad bc 3d 76 4c bd
       0.001609197 0.054122183 -0.021221932 -0.04991745
0003e0 0b 45 6a bd b7 9b f8 bd 69 49 50 bd 5d fb 91 3d
       -0.05719475 -0.12139075 -0.05085126 0.07128022
0003f0 00 de dd 3d 88 a3 44 3d 15 53 0a 3b 44 fd b4 3c
       0.10833359 0.048007518 0.002110665 0.022093423

layer1.1.bn2.weight f4 [16]
000000 98 2d 7d 3f d2 f3 7c 3f 61 1d 88 3f de 35 89 3f
       0.98897696 0.9880954 1.0633966 1.0719564
000010 57 42 84 3f 9e 40 7e 3f aa eb 85 3f 91 09 80 3f
       1.0332745 0.9931735 1.0462544 1.000292
000020 22 d4 79 3f 0a 49 7e 3f 85 70 84 3f 76 ea 83 3f
       0.97589314 0.993302 1.0346838 1.0305927
000030 fc f2 80 3f d9 ef 7b 3f 74 7e 84 3f f7 9e 81 3f
       1.0074153 0.98412853 1.035109 1.0126637

layer1.1.bn2.bias f4 [16]
000000 bb c4 49 3d 18 ac 04 ba d0 c3 23 3d 9f 53 25 3c
       0.049259882 -0.00050610444 0.039981663 0.010090738
000010 1c a6 ef bc cb 0b 6a bc ee 98 19 bd dd 3a 08 bd
       -0.029254012 -0.014285038 -0.03749936 -0.03325926
000020 06 b6 19 3d aa e9 24 bb 25 b2 72 bd df ac 68 bc
       0.037527107 -0.0025163689 -0.059251923 -0.014201372
000030 bd 1d 31 bc c9 1e 45 3d 4d b4 ac bc 11 bb 97 bc
       -0.010810313 0.048125062 -0.021082068 -0.018521817

layer1.1.bn2.running_mean f4 [16]
000000 45 a7 a9 3e f1 62 89 3e c1 15 e1 be 56 2c f2 be
       0.3313543 0.268333 -0.4396191 -0.4729945
000010 c2 25 81 be aa 35 19 be 57 4a b6 be bd fc 55 bf
       -0.2522412 -0.14961877 -0.35603592 -0.83588773
000020 96 1d 20 bf 02 f1 9a bd 40 55 57 3e 15 36 ad be
       -0.62545145 -0.075655 0.21028614 -0.33830324
000030 02 81 2e bf 62 9a 80 bf 4d 92 5a be 57 5f 9f bd
       -0.681656 -1.0047114 -0.21344872 -0.077818565

layer1.1.bn2.running_var f4 [16]
000000 97 9d 01 3f 01 6e 5d 3f dd 8c 15 3f 53 79 a8 3f
       0.5063109 0.8649598 0.58418065 1.3162025
000010 53 a3 34 3f ea 29 17 3f ce 31 b8 3e 45 b8 b7 3f
       0.70561713 0.5904833 0.35975498 1.435311
000020 55 fa a2 3f 3e f1 16 3f af ca b4 3e 77 ee 6b 3f
       1.2732645 0.58961856 0.35310885 0.92160743
000030 b9 d4 07 3f 28 f0 ef 3e ca a4 55 3f 8c 07 36 3f
       0.53058964 0.46862912 0.83454573 0.71105266

layer2.0.conv1.weight f4 [32, 16, 3, 3]
000000 42 a9 93 ba 30 29 92 bd 9e 06 e7 3c 12 47 a3 3c
       -0.0011265653 -0.07136762 0.028201398 0.01993135
000010 2d 9a 5b 3d ac 1c 2d 3d ec 16 52 3d e8 33 43 bd
       0.05361383 0.04226367 0.05129139 -0.047656924
000020 44 f3 3e 3d a0 5c da bc 1e 02 c6 bd 38 63 1b 3d
       0.046618715 -0.026655495 -0.096683726 0.03793642
000030 64 42 8e bd 4f 77 73 bd 9b b8 46 bd 1e 16 0e bc
       -0.06946257 -0.059439953 -0.048515897 -0.008672265
000040 c9 4e db 3c 36 74 44 bc 93 b2 b8 3d 98 4b 04 3d
       0.026770966 -0.0119905975 0.09018435 0.032298654
000050 68 6a f2 3d 5e 6d a0 3d 8a 68 53 3c 21 65 ed 3c
       0.11836702 0.0783336 0.012903342 0.028978886
000060 7e 8d d2 3d 4f 03 69 3d bf 59 a9 bc 3e 33 93 3d
       0.10280894 0.05688792 -0.020672677 0.07187508
000070 5f 30 98 3d f5 45 18 3d f1 83 88 bc 16 75 bf bc
       0.07431101 0.03717609 -0.016664477 -0.02337126
000080 1b 1b 81 bd cb 0a aa bc e8 a7 b7 3b 67 57 8e bd
       -0.06303998 -0.0207571 0.005604733 -0.069502644
000090 a1 78 ca bc ce 95 d1 bc 72 0d ab 3d 0b b8 46 3c
       -0.024715723 -0.025584128 0.08352174 0.01212884
0000a0 8a 32 2a bd 38 60 40 3c e6 d7 fc 3c 29 93 91 bb
       -0.041552104 0.01174169 0.030864667 -0.0044425917
0000b0 15 df 9d 3d 02 7e 18 bd 44 17 66 bd 6d 01 0f bd
       0.07708565 -0.037229545 -0.05617453 -0.03491347
0000c0 1e 9c fc 3d 39 64 6a bb ac 29 d0 3c e6 51 8c 3d
       0.123344645 -0.0035765304 0.025410496 0.068515584
0000d0 0c cb 84 3d 8b f7 9b 3c 2d 4f e5 bd b8 5c ec 3c
       0.064840406 0.019038936 -0.11196742 0.028852805
0000e0 38 5a 74 3c c0 ab 3c 3d 96 5a 94 3d 14 6e f2 bb
       0.014914088 0.04606223 0.072438404 -0.0073983762
0000f0 4a 38 a4 3d db 09 b0 3a 39 e6 84 3d 55 89 2e 3d
       0.08018549 0.0013430672 0.06489224 0.04261144
000100 f8 bc 29 3c 5a 12 8f 3d a6 32 0b 3d 98 b6 81 bd
       0.010359995 0.06985922 0.03398385 -0.06333655
000110 24 2c 01 be ef 5f 59 3d 35 d5 c8 bd 46 1d d4 bd
       -0.12614495 0.053070005 -0.09806291 -0.10357146
000120 06 4e 1f be 8a 99 38 3c ea b1 af bd 8f 96 eb bd
       -0.15557107 0.011267075 -0.08578856 -0.11503326
000130 12 63 0e bd 89 e3 b5 bd e2 63 d1 bd 54 39 ba 3b
       -0.03476245 -0.088812895 -0.10224129 0.0056831036
000140 97 60 a3 3d ae 51 f7 3d ae 61 c9 3d 3c 1c 84 3c
       0.079774074 0.12076126 0.09833084 0.016126744
000150 31 3b 99 3d 41 0b 06 bd d3 49 a0 3b 13 66 4a 3d
       0.07481993 -0.032725576 0.004891613 0.04941375
000160 1c 65 0d 3d 87 a1 ba bd 8b c3 75 bc bb 17 af 3c
       0.034520254 -0.0911284 -0.015000234 0.02137362
000170 45 07 b8 bd fa c0 1c bd 27 97 54 bc 64 a9 b9 bd
       -0.089857616 -0.038269974 -0.012975491 -0.09065512
000180 99 61 87 3a 63 de 24 3d 0c cd eb 3c d6 e0 81 3d
       0.0010328769 0.040251147 0.028784297 0.06341712
000190 84 20 93 bd 83 6f 06 bc ea ed c8 3c a3 45 35 3d
       -0.07183936 -0.008205297 0.024527509 0.044255864
0001a0 8d 75 b6 3d c9 39 6c 3c 7e 7c 0b bd dd bc 6b bc
       0.0890914 0.014418074 -0.034054272 -0.01438829
0001b0 ac 0c 8e bd f6 da 3a bb 82 d5 1a bd 80 a7 bb bb
       -0.06936011 -0.0028511859 -0.037801273 -0.0057267547
0001c0 9f 7e 59 3c eb 14 ff bc 00 4c 94 bc e6 cb b9 3d
       0.013274818 -0.031137904 -0.018102646 0.09072094
0001d0 ab 96 0a 3d 5b 4d 43 bd f6 88 7d bc be 07 01 be
       0.033835094 -0.047681194 -0.015474549 -0.1260061
0001e0 5d 10 48 3d 04 5b a8 3c cc 18 e0 bd 35 0b 51 bd
       0.04884373 0.020551212 -0.1094223 -0.05103608
0001f0 fb 9e 36 bd e6 c3 52 bc 9e 0f fc bc eb ca c3 3d
       -0.04458521 -0.012864089 -0.030769166 0.09560188
000200 46 d1 5e 3d aa f0 11 bd ce bb 0b 3e 78 16 55 bc
       0.054398797 -0.035629906 0.1364586 -0.013005845
000210 b1 7d b0 bc bb cd 25 bc a2 77 1a bc fb 10 24 3c
       -0.02154431 -0.010119851 -0.009427937 0.010013814
000220 03 de 06 bd 3d 63 55 3d 3c e6 c5 3d 3a 6e 7b bd
       -0.03292657 0.052096594 0.09663054 -0.061384417
000230 04 13 b9 3d ef 8a 88 3d dc 13 cf 3b 4e 93 bc bc
       0.0903683 0.066671245 0.006319506 -0.02301946
000240 c5 5f e6 bc af fc b6 3d d1 59 03 3e 54 45 22 3d
       -0.028121838 0.08934914 0.12827231 0.039616898
000250 a0 9b a4 3c 76 31 85 3d a3 ea a1 bd a2 22 e7 bd
       0.020093739 0.065035746 -0.079060815 -0.112859026
000260 8b 70 24 3c 83 65 64 bd c5 1d 70 bd 39 83 3a 3d
       0.010036598 -0.05576087 -0.05862214 0.0455353
000270 38 65 8d 3d 90 26 a0 3d 5e 7b 38 bc d0 83 1e bd
       0.069040716 0.07819855 -0.011259882 -0.038699925
000280 e7 a1 98 3d c4 91 87 3d 62 9a d6 3d 9f 5f d9 3d
       0.074527554 0.066195995 0.10478665 0.106139414
000290 93 ca 52 ba 2a a9 99 3d 01 02 6c 3a 5b d9 53 bd
       -0.000804105 0.075029686 0.0009002984 -0.05172096
0002a0 8c c1 18 3c 16 bc 0a bd f3 8a 12 be a7 1c a0 3b
       0.009323489 -0.03387078 -0.14310817 0.004886228
0002b0 90 54 e7 3d 84 5a 67 bc ec f3 d2 3d a6 3d 6a 3d
       0.11295426 -0.014120702 0.10300431 0.0571877
0002c0 c6 ba 25 bd 98 a6 c6 3d 81 75 a1 3d 65 25 ea bc
       -0.040461324 0.09699744 0.0788374 -0.028582284
0002d0 53 a9 85 3c fe 41 94 3d 1f fa ad 3d ec 4a 8f 3d
       0.016316092 0.072391495 0.084949724 0.06996712
0002e0 13 a9 93 3d 06 cf 9f bc 76 af 84 3d 17 1d a0 bd
       0.07209983 -0.019507896 0.06478779 -0.078180484
0002f0 16 28 99 3c e5 82 da bd 7b 18 e6 3c 46 d0 3f 3d
       0.018695872 -0.106694974 0.028087845 0.046829484
000300 9f bd 81 3c 9c 44 10 bd 57 46 98 3c 52 5f 8a 3b
       0.015837489 -0.03522168 0.018588228 0.004222789
000310 4e 8c 97 3c 1d 36 aa 3c 68 8a 76 bd 2c b5 d4 bd
       0.01849952 0.020777756 -0.06019059 -0.10386118
000320 de 18 69 3d 63 33 2a bd d4 77 c9 bd e1 54 4a bd
       0.05690848 -0.041552912 -0.098373085 -0.049397353
000330 f7 77 8c 3d da 81 bf bd e6 01 91 bb 67 47 d5 3c
       0.06858819 -0.09350939 -0.004425275 0.026035024
000340 41 2a db 3c 32 d7 a3 bc b2 9d 34 bd 37 8f c3 bb
       0.026753547 -0.020000074 -0.044095702 -0.0059680003
000350 4d e4 ec 3d 74 45 4d 3d e1 49 0d be 4b 46 b8 3d
       0.115669824 0.050115064 -0.13797714 0.08997782
000360 aa 25 eb 3c a3 55 cd bd 23 70 58 bc a1 51 43 3d
       0.028704483 -0.100260995 -0.013210329 0.04768527
000370 57 8e 99 bc 16 69 5f bd 17 57 9f 3d 3e 85 43 bd
       -0.01874463 -0.054543577 0.07780283 -0.04773449
000380 2a af 24 3c 03 39 01 3e 0b f1 b1 bd 46 47 e4 3c
       0.010051528 0.12619404 -0.086885534 0.027866017
000390 b6 fe 27 bd de bd 7e bd 6c 2a 19 bd d1 e3 a4 bc
       -0.041014396 -0.06219279 -0.037393972 -0.020128163
0003a0 df 50 af bc 48 cb 01 be 49 18 ae bd 62 46 94 bd
       -0.021400867 -0.12675202 -0.08500726 -0.07239987
0003b0 cc 1c 0e 3d 5a 9e a2 bd d6 34 bb bd 96 8b bd bd
       0.03469543 -0.079403594 -0.09140937 -0.092551395
0003c0 ec 58 86 bd 97 2f 05 3d ac 59 93 bc 2b f7 8a 3d
       -0.06559929 0.03251609 -0.017987095 0.06785425
0003d0 ea fa dc bd fc a7 18 3d 5b f6 a4 bd c6 88 31 bd
       -0.107900456 0.037269577 -0.08054801 -0.043343328
0003e0 db 4a 62 bd cb e8 86 3d e5 f4 aa bc 0e bd 11 3d
       -0.05524717 0.065873705 -0.020868728 0.035580687
0003f0 86 1b ba 3d ef 5f d3 bd fa e6 11 bd 08 93 9a bd
       0.09087281 -0.10321032 -0.035620667 -0.07547575

layer2.0.bn1.weight f4 [32]
000000 1d 4e 7e 3f 92 a1 7c 3f 12 4b 75 3f 7d 25 82 3f
       0.9933794 0.98684037 0.95817673 1.016769
000010 8b e5 7a 3f 9e 0f 83 3f e3 0e 73 3f 31 ad 80 3f
       0.98006505 1.0239141 0.9494459 1.0052854
000020 cf b4 82 3f e9 64 85 3f 4c e0 7d 3f 27 05 6e 3f
       1.0211428 1.042142 0.99170375 0.9297661
000030 46 25 82 3f fc af 6f 3f 35 9f 83 3f fe 06 78 3f
       1.0167625 0.93627906 1.0282961 0.9688567
000040 b6 44 87 3f ac 41 7e 3f e7 c5 80 3f 3e c3 86 3f
       1.0567844 0.9931896 1.0060395 1.0528333
000050 5b 8a 6d 3f 3b ca 84 3f 62 bf 85 3f 2d 31 7b 3f
       0.9278924 1.0374216 1.044903 0.9812191
000060 8d e4 76 3f 64 f0 7d 3f 04 30 85 3f c8 64 86 3f
       0.9644249 0.9919493 1.0405278 1.0499506
000070 c4 17 7a 3f 9d 66 6d 3f fb b9 89 3f 49 34 7c 3f
       0.97692513 0.927347 1.0759882 0.9851728

layer2.0.bn1.bias f4 [32]
000000 0a e5 16 3d 56 bb 03 bc cc b9 71 bd cf f8 26 bd
       0.036839522 -0.00804027 -0.05901508 -0.040764626
000010 75 53 6a bd 59 fa 20 3d a2 20 88 3b dc 87 95 3c
       -0.057208497 0.03930125 0.0041542808 0.01825326
000020 b1 ea 51 bd 66 99 8b bc a0 93 58 bd 30 ad 69 bd
       -0.05124921 -0.01704092 -0.05287516 -0.05704993
000030 75 63 b1 bc 3f ff 9c bd 2c 26 76 bc 20 4d 03 bd
       -0.02165387 -0.07665872 -0.015023749 -0.032055974
000040 3c d7 e7 bd b7 69 49 bd 8a 4c 98 bd 9d 82 79 bc
       -0.113203496 -0.049173083 -0.07436474 -0.015228895
000050 14 58 a9 bd 56 ef 17 bd dd fa 56 3d 82 fb 1a 3c
       -0.08268753 -0.037093483 0.052485336 0.009459378
000060 c4 68 9b bd 79 7d 81 3c a1 76 11 bc 1f 6e 48 3c
       -0.07588342 0.0158069 -0.008878381 0.012233286
000070 04 c0 5a bd f9 87 6c bd 5c 1d 9b 3d bb b0 77 bc
       -0.053405777 -0.05774686 0.07573959 -0.015117819
